dynamic_gesture_judge/model.pth (torch, 246361 bytes, 10 tensors)

lstm1.weight_ih_l0 f4 [256, 42]
00000000: edd3 e73d 6fbb db3d aab3 72bc 9d89 b63d
00000010: 9db2 d43c 571a 2cbc f0b3 edbb 48e2 c4bc
00000020: 8e16 f8bd 3b2e ca3d 2af3 43bd 8fd6 c13c
00000030: 4db1 733d 61fd 5dbc ad15 c6bc ddf2 a23d
00000040: 7b0a f43d 5fec dc3d ca96 023e 4711 e8bd
00000050: f083 0b3d e7f2 ffbc 0f75 a1b8 a7dd 8fbc
00000060: 8b2d 013e 7aa1 3dbd 34b7 443d a996 a1bd
00000070: 7d9e c2bd 2de5 81bd 934e 46bd 8e11 313d
00000080: fa12 59bc 91e9 043d c7f7 013e b8de 873d
00000090: 6684 96bd 11b0 e3ba 803c 013e 800c d43d
000000a0: 9d26 b53c c657 e23b e060 013e fbd9 edbd
000000b0: 59e1 efbc 3d43 943c ea02 693d 100e c9bd
000000c0: da77 ab3d 44f2 8f3d 51a2 883c 3aa1 913d
000000d0: 42f9 c1bc 7780 58bc 3f2c d2bd b6fa 463d
000000e0: f1d1 543d 4668 b9bd 0604 b7bd 56f1 4fbd
000000f0: 0bab bc3d de1d 6fbd 8405 22bd d600 003b
00000100: 81a1 513c be6c 9dbc 9622 673d 8402 d6bd
00000110: 71db 6f3b 0dff f73c dddc 71bd ccbf 77bd
00000120: 93cb 9fbd 6273 9fbd 2193 1ebd 5bb6 a03d
00000130: 37c6 3d3c d16a 653d 213f efbd b1a2 f8bd
00000140: 68d3 ce3d fe98 413b 2eda 24bd e52d b5bd
00000150: 1c54 1b3d 73b3 f33d 461b e0bd cba2 a53d
00000160: f35a 6b3d ff0b e5bc efd5 e5bd b4a3 db3d
00000170: 4a8d a2bd 4ff8 a13d 4fee dd3d 47ee 8dbc
00000180: e8df cdbd 6895 b23c 3418 01bd 7035 a23d
00000190: 2037 aabc 61ef e33c 78e3 f33c 44a3 f0bc
000001a0: 8258 b63d 5196 bf3d cd9a 8b3d c258 473c
000001b0: 1972 7fbd 3920 df3d 2b19 963d d5c0 4e3d
000001c0: 6dbc 493d 4367 97bc 687c 52bc 0781 093e
000001d0: e6b4 d83d d88c b23c c805 823c b243 d1bd
000001e0: 39dd adbd d0fa 253d 995f 8d3d 0523 98bd
000001f0: 5b0e eebd 41d9 41bd 157b 943d ce1d 6cbd
00000200: 015b 453d 4f49 e4bd 48b7 c23d aec3 6cbc
00000210: 5c67 49bd c81f 383d bbe8 d23d b5a5 80bc
00000220: b054 b1bc d6d0 7cbd 9302 9cbd 9103 e4bd
00000230: 99f6 58bd e9e1 c33d 9a0d 7ebb 7a55 0c3e
00000240: 2849 173d 3688 e03d f810 d33d a326 06bd
00000250: 82aa 1b3d b508 15ba 5b08 103c fb10 4e3c
00000260: 6d17 d2bc 70e1 bd3d 6ed8 383b 9509 cfbd
00000270: 8a97 983d 0d21 093e 48b3 513c 5e01 c53d
00000280: d43c 8cbd 542d c2bd 65df 4f3d 3deb 9cba
00000290: ef0c babd f748 c1bd ed90 063d b535 43bd
000002a0: 7bb1 723d a54e 9eb7 936f 86bd fe4f 983d
000002b0: 0897 073d 2c73 b7bd bd47 ff3d 3067 063e
000002c0: 474e c93c f273 c8bd b77f 983c d5ca f43d
000002d0: dba9 6a3d cdbe e2bd 300d 8b3d cd92 5fbd
000002e0: cc67 9b3d 27f2 f83d 24b6 763d 4e01 d03d
000002f0: 1c0b 9bbc c3d5 d4bd be23 59bd ac6d 9dbd
00000300: fb51 9c3d 8a9e a13d 6db6 653b 987b a2bd
00000310: caff c03d ab70 c4bd a313 293d 61b6 da3d
00000320: 218a d93d 232b 5ebd 1129 cd3c f5e3 063d
00000330: 9129 7abd 6137 45bb 2e9c e83c eda4 33bd
00000340: d6ca 55bd 146a 05bd 5529 f43c 4869 903c
00000350: 231c da3c fc79 cf3d 2a8f f0bd cb42 4bbd
00000360: e556 d03d bea2 f5bd e012 9fbd dd1e 983c
00000370: cbf0 abbc a56f 1d3d b1a7 7c3d 1fce 30bd
00000380: d550 5d3d 2467 10bd 84a5 fb3d acf9 cebc
00000390: 4c56 523b a048 a83d 2195 cf3d 2663 8dbd
000003a0: 8fd0 49bd 2f18 d63d 1841 8dbd 79b0 d1bd
000003b0: 3805 083d 9feb cabc 29f6 03bd 3a3c e9bd
000003c0: 9a2b b7bd a5e2 b73c 2ac1 eabd bef1 003e
000003d0: 9ecc 55bd c7cd 453d dcc4 453d e100 efbd
000003e0: f67d adbd 3e8c e1bd 62e7 d23d 40f4 b23d
000003f0: cab9 e0bd 136f 493d ae92 8abd a439 c43d
0.113197185 0.107291095 -0.014813343 0.089129664 0.025964076 -0.010504327 -0.0072541162 -0.02403368
-0.12113677 0.09872099 -0.04783932 0.02366188 0.05949526 -0.01354918 -0.024180258 0.07956479
0.119160615 0.10787272 0.12752834 -0.113314204 0.034061372 -0.031243755 -7.698882e-05 -0.017561747
0.1261503 -0.046296574 0.04802628 -0.07890064 -0.095028855 -0.0634254 -0.048414778 0.043229632
-0.013249153 0.03244931 0.12692176 0.06634277 -0.07349472 -0.0017371197 0.12620735 0.10353947
0.022113139 0.006907436 0.12634611 -0.11613842 -0.029282259 0.018098468 0.056887545 -0.09817135
0.08372469 0.070286304 0.016678961 0.0711083 -0.023678426 -0.013214222 -0.102623455 0.04857894
0.05195803 -0.09053092 -0.08936314 -0.050767265 0.09212311 -0.058378093 -0.03955604 0.0019531748
0.012794853 -0.019216891 0.056429468 -0.104496986 0.0036599303 0.030272985 -0.059048522 -0.060485646
-0.078025006 -0.077856794 -0.03871453 0.078472815 0.011582903 0.05601007 -0.11681963 -0.12140406
0.10098916 0.0029540653 -0.040247135 -0.08846644 0.03792201 0.118994616 -0.10942702 0.08087691
0.057459783 -0.027959822 -0.11222445 0.10724583 -0.07937105 0.07908689 0.108364694 -0.017325534
-0.10052472 0.021799758 -0.031517223 0.07920349 -0.020778239 0.027824106 0.029771551 -0.029374726
0.089036 0.093548425 0.06816635 0.012167158 -0.06236467 0.10894818 0.07329019 0.050476868
0.049251962 -0.018481856 -0.012847044 0.13428126 0.10581379 0.021795675 0.015871897 -0.1021799
-0.084894605 0.040522397 0.069029994 -0.074285544 -0.11623832 -0.04732633 0.072500385 -0.05764561
0.04818249 -0.11146795 0.095076144 -0.014450951 -0.049170837 0.044952184 0.10298296 -0.015704015
-0.021646827 -0.0617226 -0.076176785 -0.11133493 -0.05296955 0.09564573 -0.0038765431 0.13704482
0.036935 0.1096348 0.10305971 -0.03275169 0.038004406 -0.00056851964 0.008791055 0.012577291
-0.025645936 0.092715144 0.0028205174 -0.101092495 0.07450779 0.13391514 0.012799092 0.096194014
-0.068475395 -0.09481302 0.050750155 -0.0011971962 -0.09084498 -0.09437745 0.032853056 -0.04765864
0.05925129 -1.887169e-05 -0.0656425 0.07437132 0.03310302 -0.08957514 0.12464855 0.131253
0.024573458 -0.0978774 0.018615587 0.1195275 0.057290893 -0.110715486 0.06789625 -0.05458336
0.07588157 0.12155562 0.060232297 0.10156499 -0.018926196 -0.10392334 -0.053012602 -0.07686934
0.07632824 0.07891567 0.0035051361 -0.0793373 0.09423788 -0.09591802 0.041278493 0.10679317
0.10622049 -0.054240357 0.025043996 0.03293224 -0.061074797 -0.0030092823 0.028394785 -0.043858457
-0.052195393 -0.032571867 0.029804865 0.017628327 0.026624745 0.101306885 -0.117460564 -0.049624246
0.10172824 -0.11993931 -0.07767272 0.018569404 -0.020988842 0.03843655 0.06168336 -0.043165322
0.054032166 -0.035254613 0.12287429 -0.025265537 0.0032094894 0.08216977 0.10135866 -0.06903677
-0.049271163 0.104538314 -0.06897181 -0.102387376 0.033208102 -0.024770556 -0.03221718 -0.113884404
-0.08943863 0.02244694 -0.11462624 0.12592217 -0.05219709 0.048291948 0.048283443 -0.116700895
-0.08471291 -0.11013077 0.10298039 0.08737993 -0.109729365 0.049178194 -0.06766258 0.095813066

lstm1.weight_hh_l0 f4 [256, 64]
00000000: de8d b7bd 03ba 04bd fce3 0abd 9737 c13d
00000010: b907 e1bd 2c48 e03c 233f c13c d4a5 d43d
00000020: 4b81 a0bd 7c8e 69bd 1f94 9bbd 56cb d6bd
00000030: e33c 90bb f680 d0bc d859 f73d 0b09 a13d
00000040: c560 dc3d 531a 0fbd fb7d 91bd e20f 8dbc
00000050: 3aaf dbbd 5a60 b73d 2580 d5bd 0e3c 2d3d
00000060: de40 63bd 0be7 edbd c8cd 313d 7063 c13d
00000070: 7816 933d f24b 4b3d 803a b4bd e427 b33d
00000080: 9e71 443d bf87 853d d98b cf3d 7da3 1fbc
00000090: 3233 e03d 6b6b 763d b5f7 64bc bf9e c7bd
000000a0: 080c f6bd c90e 623d c2c9 253d 9aec d03d
000000b0: 9f02 25bd c0d7 8a3b 90d5 c4bc e136 783c
000000c0: 0b35 f53d b90a 553d 9e9f c4bd c0bc dc3d
000000d0: a506 1cbc 6367 d23d e0cb 94bd bc92 d1bd
000000e0: 57a4 433d c9b2 223d 0c40 eb3d 7053 d4bb
000000f0: 0fc7 ddbc 856b 01be 41fe be3d 2385 b33d
00000100: 5ae7 7e3d fe2c 87bc ebfe 403b f07a a1bd
00000110: e3e3 a53c 5daa a2bd 086c f33b 79fb bbbc
00000120: 3efc 863d a1cc 95bc 8e94 f0bd 08bd ec3d
00000130: b1c6 02bd e997 293d cb00 6abd 3d2b 783a
00000140: 8cbc bfbd cb9f d53d 2d05 aabd 312a 203d
00000150: edf5 0e3d 23b9 a23c e654 d4bc e41d 413d
00000160: 72a5 0dbd 3985 a7bd 77b8 2bbd 7e06 f5bc
00000170: 8a51 6abd add1 c03d 728f fcbd d0fb 55bd
00000180: 5704 b5bd 9794 073b 650b 83bd 2698 cbbd
00000190: ec75 a23d 50f3 78bd afe2 6dbc 9493 46bd
000001a0: 575d 8ebc 9677 84bd 8571 983d bf71 0a3d
000001b0: f52c b4bd ee1e fabd b551 a2bc 14c3 f33d
000001c0: 4d2a 0ebc 18e1 0e3d 710c 223c d144 8ebd
000001d0: 452a ff3d 66aa ae3d e3f6 8f3d 7f5a e1bd
000001e0: b92e d7bd 9ee3 bd3d 854a 87bd d595 19bd
000001f0: ac51 8c3d 2860 a8bd 5839 473c 985c 9d3d
00000200: fecc f83d a43f bcbc 4b90 eebd 7008 3bbd
00000210: 9e0e f43c 090b 903d fb18 0a3d eab2 63bb
00000220: 3e91 65bd 9d53 c03d e0ef d03d 2341 003e
00000230: 630c ad3d d43c 923d f0d3 8cbd 3e4b e8bd
00000240: 29c2 cabd 9c43 3dbd 2baa 7e3d 97c1 8bbc
00000250: 44a4 613d 2214 c1bc 7528 8b3d c2bf 433d
00000260: e2b5 933c c966 a4bd c9cb aebc 5336 41bd
00000270: baeb 033d 60a6 7fbd 3f58 01bd dee8 0dbd
00000280: bd28 e13d 0740 36bd bad7 94bc 5a60 afbd
00000290: 2188 ed3d 5777 e5bd 092c 473d 227e 003d
000002a0: 7112 803d 3792 35bd e552 3f3d af16 6ebd
000002b0: 8e58 a4bc 87a5 e4bd 9cbf 26bd 08d0 023e
000002c0: 0af5 a03d dd06 63bd a46a 53bd 81a3 e2bd
000002d0: 9a97 e33d 10a8 e2bc bfec c5bd c5a5 0c3d
000002e0: 0888 a3bd bf9d 583d 8f8c 73bd 1ced cfbd
000002f0: af5f f43d 5db9 933d 7f23 4e3d 3399 f43d
00000300: 1381 d33d ac95 23bd 5ecc cd3d 9c53 e63c
00000310: 3811 80bd 2258 6bbc 8ab1 dcbd 6ae9 fd3b
00000320: 6cf8 c43d 465c a9bc 1317 eb3d 961a 503d
00000330: e0d5 83bb 314d f13d fac4 f0bd e489 cb3d
00000340: c6e1 423d f156 bf3d 0f60 b5bd 8ba7 99bd
00000350: deba 51bd 0377 20bd 4602 2abd 1b13 563d
00000360: 689f d93d 6977 ac3c 0c0c 22bd 16f0 b33c
00000370: fbb4 a4bd c355 2a3d bcb5 38bd e52d c4bd
00000380: a897 5e3d d10e 7b3d 0ea4 9d3c ad50 e23c
00000390: ffc6 423c 6846 fdbd 470e 1abd c8cc b03d
000003a0: e102 fcbc 165b 25bd c82c 8e3d b541 cebc
000003b0: ac66 3cbd fedb 453b bdec 28bd f8a6 a43d
000003c0: 9fcb a1bd 71d1 0bbd 706a 463d dc31 d5bd
000003d0: 4f31 6a3b 8456 afbd 6af2 953d 8a5a 81bd
000003e0: f12e 96bc 6ba5 e63d 37ee 30bd 67f0 aa3c
000003f0: b27c e83d 384c 453d e084 803d ba96 f6bd
-0.08962606 -0.032403957 -0.03390883 0.09434431 -0.10987801 0.027378164 0.023589676 0.10383192
-0.07837161 -0.05702065 -0.07596611 -0.10488002 -0.0044017895 -0.025452118 0.12077683 0.07863053
0.10760645 -0.034937214 -0.07104107 -0.017219488 -0.10726781 0.089539245 -0.10424832 0.0422936
-0.055481784 -0.116163336 0.04340914 0.09442794 0.0718202 0.049632974 -0.088002205 0.08747843
0.047959916 0.06520032 0.10134096 -0.0097435685 0.10947265 0.060161036 -0.013975074 -0.09747075
-0.120140135 0.05518988 0.040475614 0.10201378 -0.040285703 0.004237145 -0.024027616 0.015149803
0.11973008 0.05201218 -0.09600757 0.10778189 -0.009523069 0.10273626 -0.072654486 -0.102330655
0.04776415 0.039721284 0.11486825 -0.006479673 -0.027072458 -0.12638672 0.09325839 0.08765628
0.062232353 -0.016500946 0.0029448818 -0.078847766 0.020250266 -0.079426505 0.00742865 -0.02294706
0.0659108 -0.018286051 -0.117470846 0.11559492 -0.03192777 0.04140464 -0.057129662 0.0009466892
-0.09362134 0.10430869 -0.083017685 0.039102737 0.0349025 0.01986367 -0.025919389 0.047147647
-0.03458161 -0.08179707 -0.041923966 -0.029910322 -0.057206668 0.094149925 -0.123320475 -0.0522421
-0.088387184 0.0020687932 -0.06398658 -0.099411294 0.07932648 -0.060778916 -0.014519378 -0.048480585
-0.017378492 -0.06468122 0.07443527 0.033799883 -0.087976374 -0.122129306 -0.019814352 0.119024426
-0.0086770775 0.034882635 0.009890662 -0.069467194 0.12459234 0.08528595 0.07029512 -0.11003589
-0.105069585 0.0927193 -0.0660601 -0.037496407 0.06851515 -0.08221465 0.012159668 0.076836765
0.12148474 -0.022979565 -0.116486154 -0.045662344 0.029792126 0.07033355 0.03371523 -0.0034744092
-0.056046717 0.09390948 0.102020025 0.12524848 0.08449628 0.07140508 -0.06876361 -0.11342476
-0.09900314 -0.046207055 0.062174004 -0.017060084 0.055088297 -0.02356917 0.06794826 0.047790296
0.018031064 -0.08027417 -0.021337407 -0.04717095 0.03220723 -0.062414527 -0.0315783 -0.034645908
0.10994098 -0.044494655 -0.018169273 -0.085632995 0.1159823 -0.11204403 0.04862598 0.03137029
0.062535174 -0.044328894 0.046709914 -0.0581271 -0.020061757 -0.11164384 -0.040710077 0.1277467
0.078592375 -0.055426467 -0.051615372 -0.11066342 0.111129 -0.02766803 -0.09664296 0.034337778
-0.0798493 0.052884813 -0.05946022 -0.10152647 0.11932313 0.072130896 0.05032682 0.11943283
0.10327353 -0.03993766 0.100487456 0.02811604 -0.06253284 -0.014364274 -0.107760504 0.0077487724
0.09617695 -0.020673882 0.114790104 0.050806604 -0.0040232986 0.11782301 -0.1175632 0.0993841
0.047578596 0.09342755 -0.08856212 -0.075026594 -0.0512036 -0.039176 -0.041506074 0.052264314
0.106261075 0.021053033 -0.03956227 0.021965068 -0.08042332 0.041585695 -0.04509519 -0.09579066
0.05434385 0.061293427 0.019243266 0.02762636 0.011888265 -0.123669446 -0.037611272 0.08632809
-0.030763092 -0.04037007 0.06942135 -0.025177816 -0.045996353 0.003019094 -0.041241396 0.08039659
-0.07900166 -0.034135286 0.04844135 -0.104099005 0.0035734957 -0.085614234 0.073216274 -0.06316097
-0.01833293 0.1126202 -0.04319593 0.020866586 0.11351909 0.04816839 0.06275344 -0.120404676

lstm1.bias_ih_l0 f4 [256]
00000000: a1cc 2e3d 7dbb c9bd 4ef9 3b3d 7c5d c0bd
00000010: 1168 62bd 1c4f a33d 87b5 c8bd 9673 81bd
00000020: aecb b43d 49b9 61bd 20b1 dcbb 6dc8 0cbd
00000030: 1137 c1bd dbae a13c c1db 36bd 5fc7 37bd
00000040: 05c0 e23c 1024 d43d d603 663d f139 8bbd
00000050: 7a3a e93d 9ddc c5bd cf3e 2a3e 9d10 ebbb
00000060: b927 6b3d 78a3 9f3c dcfe 403c ebdf 0b3e
00000070: 56aa 2e3b 291e 543d 43a9 e33d 8dea cdbd
00000080: 6ae0 053e 2b8f cdbc 8018 fdba 4df3 95bd
00000090: da5a 613c 46c7 a93d 26e1 bcbd 13aa ae3b
000000a0: ec23 cc3d 8bed 8a3d a248 ea3d 6276 e1bd
000000b0: 43f6 02bd de09 c73c 376d 53bd 6298 223c
000000c0: f5af b43d 9c8d b93d 4f0c 7e3d 464c 583d
000000d0: c503 233c d040 cf3d ea83 44bc ec45 dabd
000000e0: 8a56 3d3c dbe9 703d cf75 8aba ae7e 423d
000000f0: 16ff 613c 95a7 bd3b 69b6 203c 5e78 623d
00000100: 3c90 923d c93f e8bd c683 7ebc 79d8 b3bd
00000110: 3568 9d3c 17cf 253d 2b62 da3d 9e63 76bd
00000120: 9952 1b3d 8591 86bd 3169 47bd 04e7 8e3d
00000130: 0acf 8f3c f78c f73d a5bf abbc ebd2 aa3d
00000140: ac4c 613d 1c1c cfbd 0b1b d83d fcc3 a53d
00000150: 3d8f 323c 76d3 f13d 1634 1e3e 86a8 233d
00000160: 481e 7cbd 8cdf af3d 21a8 e63d 83ff 863d
00000170: 0ff2 3fbd 9a95 a53d b714 3d3b eda2 0a3b
00000180: 63ca 99bd 415c e43d 0283 593d 9d01 d43d
00000190: 8b46 a73c 6175 1d3e 0608 80bd 2461 23bd
000001a0: daae 993d 6ce7 cfbc 9405 35bd 7ca3 823d
000001b0: de8e e1bd 2e24 e63d 9ded 94bd e941 d73b
000001c0: 3d77 243e 0fce d5bb 2103 5d3d caf9 173d
000001d0: 450b bfbd e168 c1bc ae43 f4b8 7c65 c7bd
000001e0: 662b f6bc e78b 76bd 2452 023c 7bae 18bd
000001f0: 242f 233e a212 1f3e 9666 0d3e 063d 47bd
00000200: 6c36 5bbd d8c4 893d 1aa0 c2bc 1631 0bbe
00000210: 915e 46b9 2607 fabc 19f7 363a 1662 e63d
00000220: ecec 26bd bb33 59bd 94fa 10bd 45df b53d
00000230: ed04 31bd ba7d c9bc fbab debc 4921 173d
00000240: 371d ea3c 868e 00bd 1819 a73d 3fdf 38bd
00000250: 3b29 d33c 15b0 853d 84d9 373e 56f5 7cbd
00000260: 1617 8ebd 45a9 0f3b e78e 5e3b 6168 3c3d
00000270: dc48 d2bd 4cd5 b0bc 494e cfbc 80db 6f3c
00000280: dcf4 b53d 1e8c bebd bf27 12be 2066 0d3e
00000290: a12f 483d a6eb 31be 116f c13d 5575 143d
000002a0: 282b 303e 5a10 f8bd 29f3 3f3e da17 993c
000002b0: 23c0 3f3d 72f0 c0ba a39c 6e3d 4545 55be
000002c0: 4a04 f2bd fb7d 0f3e 9e98 f0bd 8863 723c
000002d0: 77d8 333d 942f 993d d39f e83d 629c 62bd
000002e0: 5cbf b5bc 00e7 9a3d 7823 183d 7053 00be
000002f0: 4937 bdbd ca49 2f3e f456 593e 6ecb b9b7
00000300: dd6d 42bd ed3d d5bd fce3 ea3c b690 88bb
00000310: a7fb 693d 7f77 193c adb1 c73d 3a99 103d
00000320: 3128 d73d b7ec e7bd 996e 8a3d 7e68 47bc
00000330: e563 92bd 2e60 183e 11e6 f33d 1ce9 063e
00000340: ded3 ca3c ca21 3fbd 5006 cebd 0ed8 d5bd
00000350: f86d 863d 23b4 933d d356 253e d84d 88bd
00000360: 7d1f ff3d 81fc b3bd 9011 803c 2fc5 a23c
00000370: eee3 403d 1ea3 e33d 9886 99bc 495b 093e
00000380: a7bc 18bd 9eeb aabd 3c06 933d 83f6 94bc
00000390: 053b 86bc eaf7 243d 6a48 84bd 3e50 e83d
000003a0: 7011 a73d d2e5 80bd d210 cd3c 548c b1bd
000003b0: ba96 92bd dd4c c83c 7d5c 89bc 2672 cd3d
000003c0: a850 0c3e 9974 75bc 5b2e b23b 77a2 ee3c
000003d0: 1ce5 ebbd 3688 8cbc 9b3b 4abd fb13 053e
000003e0: c975 d8bd f64c df3c a19b cbbd fd1b 973c
000003f0: d3ca 393e 9705 373e c19a 483e d3b7 493d
0.042675618 -0.09850214 0.045892052 -0.09392831 -0.055275027 0.07974073 -0.098002486 -0.063208744
0.08827911 -0.055108342 -0.006734982 -0.03437083 -0.09434331 0.019736698 -0.044643167 -0.04486787
0.027679453 0.10358441 0.056156002 -0.06798161 0.11388107 -0.09661219 0.16625522 -0.0071736113
0.05741093 0.019487128 0.011779513 0.13659637 0.002665182 0.051786575 0.111162685 -0.10054503
0.13073888 -0.025092682 -0.001930967 -0.073217966 0.013754571 0.082899615 -0.09222631 0.005330333
0.09967789 0.06783589 0.11439635 -0.11008908 -0.031973135 0.024296697 -0.051617827 0.009924026
0.08822624 0.09060213 0.062023457 0.052807115 0.009949629 0.10119784 -0.011994341 -0.10657868
0.011556277 0.058816772 -0.0010563674 0.047484092 0.013793727 0.0057877996 0.009809115 0.055290572
0.07156417 -0.11340291 -0.015534347 -0.08781523 0.019214729 0.0404807 0.10663255 -0.060153596
0.03792057 -0.065707244 -0.048684303 0.069776565 0.017554779 0.12087434 -0.020965407 0.08341011
0.05500476 -0.10112783 0.10552033 0.08094022 0.0108984085 0.11807911 0.15449557 0.03995564
-0.061552316 0.0858756 0.11262537 0.06591704 -0.046861704 0.08085175 0.0028851458 0.002115424
-0.07509305 0.111504085 0.053103454 0.1035187 0.02041938 0.15376808 -0.0625153 -0.039887562
0.075040534 -0.025378905 -0.044194773 0.063788384 -0.11013578 0.112373695 -0.07271884 0.0065691364
0.16061111 -0.0065248082 0.053958062 0.03710345 -0.09328321 -0.02360958 -0.00011647433 -0.097361535
-0.03004999 -0.060192015 0.007954154 -0.037275773 0.15935951 0.15534452 0.13808665 -0.04864218
-0.053518698 0.06726998 -0.023757983 -0.13592944 -0.0001891798 -0.030520987 0.00069795694 0.11249177
-0.04075329 -0.05302785 -0.03539522 0.08880476 -0.04321759 -0.024596084 -0.027181616 0.036896978
0.028578384 -0.03138592 0.08159083 -0.04513478 0.025776496 0.065277256 0.1795407 -0.061757408
-0.06937997 0.002192096 0.0033959688 0.04599798 -0.10267803 -0.021586083 -0.025305884 0.014639735
0.08884594 -0.09304069 -0.14272974 0.13808489 0.048873547 -0.17375049 0.09445012 0.03624471
0.17203963 -0.12112494 0.18745102 0.018688131 0.046814095 -0.0014720096 0.05825485 -0.20827205
-0.11817224 0.14012901 -0.117478594 0.014794238 0.04390761 0.07479778 0.11358609 -0.05532492
-0.022185974 0.07563591 0.0371432 -0.12531829 -0.092390604 0.17117992 0.21224576 -2.2148448e-05
-0.047468055 -0.10412202 0.028673165 -0.0041676415 0.05712476 0.009366869 0.09750686 0.03530238
0.10505713 -0.11324447 0.06759376 -0.012170909 -0.071479596 0.1488044 0.11909116 0.13174862
0.02475923 -0.046663083 -0.10059798 -0.104416 0.065639436 0.07212093 0.16146402 -0.066554725
0.12457178 -0.08788396 0.015633374 0.019869415 0.04709237 0.111150965 -0.018740937 0.13413729
-0.037289288 -0.08345722 0.071789235 -0.018183952 -0.016385565 0.04027549 -0.064591244 0.1134343
0.08157623 -0.06293835 0.025032435 -0.086693436 -0.07157655 0.024450714 -0.016767735 0.10031538
0.13702643 -0.014981412 0.005437655 0.029130204 -0.115183085 -0.017154794 -0.04937325 0.12995903
-0.10569341 0.027258378 -0.09941793 0.018445963 0.18143778 0.17873226 0.19590284 0.049247574

lstm1.bias_hh_l0 f4 [256]
00000000: 82e3 b73d 2dab e2bd 59f4 bf3d fc62 b9bc
00000010: 19dc 6f3d cb91 003e 9dc9 84bd 6cd0 c0bd
00000020: 2fa9 053b 8844 e53d e584 f4bc 0321 0a3e
00000030: a64d 003d fe35 0dbd e7e6 7c3d bdec 9abd
00000040: e115 a53d 9d97 013d adcc 98bc cc95 6b3c
00000050: f5de a7bb 2850 db3b 718a 29bc 15a6 e53d
00000060: 0727 363c b701 643d 3fa0 a8bd 84a3 06bd
00000070: aa93 f13d a850 bb3d 47ef 2d3d 63a1 6f3d
00000080: 666e 80bd 8ef7 003e 52ab bdbc c5db 03bd
00000090: e3c1 86bd 531b 8d3d 4860 cb3d 7143 d73d
000000a0: 56b8 053e 4fb0 c63d 41ad 163e 5bb8 49bd
000000b0: fc72 a73b 023c d23d e10c 063e caa1 b43d
000000c0: 493b 013c afa8 583c 5b8a e03d b0bd 5e3c
000000d0: 4688 a5bc cd59 283d d1ea f83c 4457 8e3c
000000e0: 1308 6f3d 879e ef3d 2373 9abd d277 50bd
000000f0: 177b d13d 08b7 843c 7b72 cc3d 9690 7c3d
00000100: 80d8 f13d d395 433c c633 9b3d b30a 173e
00000110: fe64 823d 6a97 af3d 5e3d 7ebd 9492 e6bb
00000120: b560 97bd 0d08 86bd c1b9 f13c 99cc 97bd
00000130: 5970 ae3d 23e8 ac3d 369b 183c d938 b9bd
00000140: d5d6 a5bd e660 d6bd 92f9 bc3c fc23 92bd
00000150: 2ffa a1bb aaaf 15bd 297e f9bc 6b4b dbbd
00000160: 3854 e9bd a202 943d ba72 08bd 7d42 9f3d
00000170: 4966 473d 5515 4c3c 8204 e43d f257 493d
00000180: 07dc bbb9 5d39 e03d 722f acbd 7b19 f73c
00000190: cd1b 68ba dc9b 623d c7c1 0a3d 174e db3d
000001a0: f48e 0d3e e068 fabc d332 10bd 41df c3bd
000001b0: 80b7 a1bd 6208 b03d 21e4 bc3d c9db 563d
000001c0: 6d1b c83d 12f1 c1bd 8eba e03d 71d9 cb3d
000001d0: 1aeb 293d 93c4 50bc f600 d8bd 8858 18bd
000001e0: 6fac c73c c13f 3d3c a1e5 d2bd fc61 fabd
000001f0: dfcf 843d 958c 143e 36cd c43d 5109 cebd
00000200: 9a81 f6bc c5c5 803d 0c3b 4abb 0485 3b3c
00000210: cf25 1d3d 9bbb b3bd 5924 1ebe 4491 043d
00000220: 84f0 ddbd 838d 083d b373 9e3d d686 cc3c
00000230: 6a12 ecbc 8b2e b7bc 723d 5e3d ef08 8b3d
00000240: 1736 163e 9256 043d 62c3 c53d be01 b0bd
00000250: 5f32 c43d 031c df3c 5d1c 3b3c 5128 06be
00000260: 9fd2 6bbc 981a 0cbe bf0f a3bd 46b6 88bd
00000270: b233 69bd f4b2 213d 0623 90bd cb26 773b
00000280: da71 393d 0049 573d 73f3 b1bc cb44 1a3e
00000290: 3d90 dd3d d5f9 4fbe 8323 73bc 61fb 913d
000002a0: bd26 3a3d 9d33 92bd 77a4 5b3c 5e38 563b
000002b0: f738 eebc 7e7c 75bd baeb 88bd 6aea 14be
000002c0: bf45 8dbd 146d e13d 01aa dabd 3d17 96bd
000002d0: 128c b13d af9f adbd 3f15 ad3d 3fe7 98bd
000002e0: 1e20 15be bfd0 1c3e 53e2 8c3d 00e0 983d
000002f0: bfd4 60be 87dd 7bbc ef8d 873d cf39 e2bd
00000300: e802 bfbd 715c 903c 8388 373c dc8a aa3d
00000310: 832b 9c3c f3a4 f03c e55a ad3d de1d b8bc
00000320: e5f8 b93d 939b cb3c c5ae 12bd a85d e6bc
00000330: 2542 5d3d 44ae aa3b bdf1 d23d 6469 3abd
00000340: b47a bebb 0e45 31bd 74cf 94bd 850c 48bd
00000350: deae b13d 05d7 1e3a 7d1c 23bd 944c 843d
00000360: 4f04 533c 57be 86bd bd79 cebd ed40 903d
00000370: aa0f 20bd 05b2 afbb 5173 0cbd 5986 9ebd
00000380: 4af4 ef3d 5aa7 88bd 56d2 b3bd 3b7a 3cbd
00000390: 93ed 853d 5b94 063e f04e b1bd 5d48 093e
000003a0: 070f 0f3e b49c 18bc eb7f abbc c43c 92bd
000003b0: 7400 83bc 21f0 8c3d 6ccc fa3d ce6a 253d
000003c0: 4df0 2e3e 4bae e1bd 45cc 203e 4cef 8b3d
000003d0: c8fe d03c 241e b0bd 3eab b83d a824 03bd
000003e0: 6ffa c03d 42d4 b93d 318a a4bd 9ba8 cabd
000003f0: 4885 383e 7e6d 7b3d 4753 403e 5133 30bd
0.089789405 -0.110678054 0.093727775 -0.022630207 0.05855951 0.12555616 -0.06483767 -0.09414753
0.002039503 0.11194712 -0.029848525 0.13489155 0.03132405 -0.03447532 0.061743643 -0.075646855
0.08060814 0.03163873 -0.018652285 0.014378976 -0.005123014 0.006692905 -0.010347948 0.11213318
0.011117703 0.055665698 -0.082336895 -0.032870784 0.11795743 0.09146243 0.04246452 0.05850352
-0.06271057 0.12594435 -0.023152981 -0.03219201 -0.0657995 0.06889977 0.099304736 0.1051091
0.130586 0.09701597 0.14714529 -0.04924808 0.0051101428 0.10265352 0.1309085 0.08819921
0.00788767 0.013223811 0.10963889 0.01359503 -0.020206582 0.041101266 0.030385407 0.017375596
0.05835731 0.117001586 -0.07541492 -0.05089552 0.10228556 0.016200557 0.09982773 0.061661325
0.11808872 0.011937576 0.075782344 0.14750175 0.06366919 0.08573802 -0.062070243 -0.0070365164
-0.07391492 -0.06544504 0.02950752 -0.07412071 0.08517522 0.08442714 0.009314349 -0.09044046
-0.080976166 -0.10467701 0.023068223 -0.0713577 -0.0049431543 -0.03654448 -0.030455666 -0.10707744
-0.113930166 0.07227065 -0.033312537 0.077763535 0.04868153 0.012456258 0.11133672 0.049156137
-0.00035831353 0.10948441 -0.08407487 0.030163517 -0.00088542403 0.05532442 0.033876207 0.10708254
0.13824064 -0.030567586 -0.03520472 -0.09564067 -0.07896328 0.08595349 0.092232 0.052455697
0.09770856 -0.09469809 0.109730825 0.09953583 0.041483976 -0.012742179 -0.10547058 -0.037193805
0.024374215 0.011550845 -0.102977045 -0.1222572 0.06484961 0.14506753 0.096094534 -0.10060371
-0.030091096 0.062877215 -0.0030857949 0.011445288 0.038366135 -0.08776017 -0.15443553 0.0323651
-0.1083689 0.03333808 0.077369116 0.024966639 -0.028817374 -0.02236106 0.054257818 0.06788813
0.14669071 0.032309122 0.09656407 -0.08594082 0.0957992 0.027235037 0.011420337 -0.13101317
-0.014393478 -0.1368202 -0.07961988 -0.06675391 -0.056934066 0.039477304 -0.0703793 0.0037712331
0.045274593 0.052559853 -0.021722531 0.15065305 0.10818527 -0.20310147 -0.01484001 0.07128025
0.0454471 -0.07138751 0.013405911 0.0032687406 -0.029079897 -0.059933178 -0.06685586 -0.14542547
-0.06898069 0.11007133 -0.10676957 -0.07328651 0.086692944 -0.08477723 0.08451318 -0.07465982
-0.14563033 0.15314005 0.068791054 0.074645996 -0.21956156 -0.01537264 0.066188686 -0.11046182
-0.09326726 0.017622204 0.0112019805 0.083272666 0.019063717 0.029375529 0.084646024 -0.02247518
0.09080676 0.024854457 -0.035811204 -0.02812083 0.05401816 0.0052087624 0.10300014 -0.045510665
-0.005812967 -0.043278746 -0.07266131 -0.048840065 0.086759314 0.0006059262 -0.03982209 0.064599186
0.012879445 -0.06579273 -0.100818135 0.070436336 -0.03907744 -0.0053617978 -0.03428966 -0.077404685
0.11716516 -0.06672545 -0.08780353 -0.046015006 0.06539454 0.1314253 -0.08657634 0.1340651
0.13970576 -0.009314705 -0.02093502 -0.071404964 -0.015991427 0.068817385 0.12246022 0.04038506
0.17083855 -0.11019572 0.15702923 0.06832752 0.025512114 -0.08599499 0.09017037 -0.03201738
0.094227664 0.09073688 -0.080341704 -0.0989544 0.18019593 0.061383717 0.18781768 -0.04301769

lstm1.weight_ih_l1 f4 [256, 64]
00000000: ce80 90bd 9afd 983d 6a40 3ebd 7409 f5bc
00000010: 3fce d7bd 64ab e3bd 23a1 3b3d c00b a3bd
00000020: 4ad8 543d dfd2 a93c f556 643d 4401 c4bd
00000030: 0ae6 d0bc b54d 123d 2116 8e3d 7a8c d53b
00000040: 9d6e 903d bb79 da3c 9190 e43d abff 93bd
00000050: 69e4 363d 45ac d1bc 14a5 a73d 38b0 e63d
00000060: c964 a83d 52ad cdbc 4913 173d ef68 e13d
00000070: 235d b73d b9c0 ed3d 8197 53bd 7d81 06bd
00000080: 3002 923d 117f 843d ea85 efbd 8572 eb3a
00000090: e3b2 6f3d f339 df3d cf0b df3d 7781 ad3d
000000a0: 9bb0 a03c a172 9dbd 435b 123c 9ee9 f9bd
000000b0: 1b62 e2bd e6b6 b0bd ac8a 8c3d e15b a43d
000000c0: 3361 88bd 07fc 87bd 176c 9c3d cc73 043e
000000d0: 70d1 af3d 63c8 e63d 91ce d8bd 61e8 dbbc
000000e0: 97f1 b23d 2f20 c13d c9f6 683d d916 49bd
000000f0: fbc6 6f3d 5552 ddbd b5e1 b1bc b6f1 8cbd
00000100: 7744 d3bd b299 333d fabf 1dbd a69b b43d
00000110: 8d93 44bd f31e 813d b03f 51bc 1ba6 c73d
00000120: 235e e63d ae5c eabc be96 c13d 7074 8d3c
00000130: 7565 603c eca9 d63d 23ac 8dbc 8ace e4bd
00000140: 5a96 93bc f24b 843c 6523 c2bd 2d82 81bd
00000150: ae40 e93d 0ed7 ee3c 5485 8c3d 0a2a cf3d
00000160: 6e90 a3bc b534 5cbd 3e9a e9bc 5d20 c03d
00000170: c08a cc3d d187 15bd ec09 813d f482 e8bd
00000180: a661 b5bc 5582 d93d 650c 8fbd 0366 5fbd
00000190: ab90 79bd 659b 6cbd 3d38 f53b 0eed bc3d
000001a0: 0f46 9d3d 6382 733d 516c 7e3c bb9c 073b
000001b0: 7175 dc3c 1453 b53d 1884 f93d 752e 8cbd
000001c0: 0eef 37bd 60ff 953d 946b afbd 01ad 46bd
000001d0: 66a5 b93d 5518 b33d 2cdb 223d ecd7 703d
000001e0: 5311 45bd ab08 d3bc f202 95bd 2901 f13d
000001f0: 0688 e03c 2238 b1bc b9d7 343d 79df eabd
00000200: 5703 663b 589e cabc 5174 8b3d 4cbd b4bc
00000210: 0fc5 16bd 81ce a1bd 65da f3bc 6187 0cbd
00000220: 317a b3bd a2ba d8bc d0cb 2cbd 1383 00bd
00000230: 5409 0b3d 29cf 8ebc 381d 0ebd 806c 55bc
00000240: 44f5 0d3d 4161 dcbd 4343 943d 5254 bfbd
00000250: e754 cc3d 039f 96bd 2a4f c93d 0d65 cd3b
00000260: 5ffa bdbd a21a 43bd ceec 8fbd a759 9d3c
00000270: 4580 933d bc13 36bd 4682 72bd 4206 d4bd
00000280: 4d2e c8bd 216e 8c3d fa73 00bd 5b8d da3c
00000290: 5f81 c93d c380 d7bc 58bc 8b3d cd0d c13d
000002a0: 9907 303d d5ce efbd 7b94 cdbd 8acb bdbd
000002b0: 760d c6bc fc5c 5a3d bdc2 16bd 4649 9c3d
000002c0: c865 b43d 625d cdbb 2c3c 8c3d a27e 353c
000002d0: fa2b 683d 9cb3 cebd 6bd3 c6bd f71c 8c3d
000002e0: 1369 2a3d 344d 4b3d 7d8a 943d c7b8 ccbd
000002f0: 0cb0 af3c 8c0d 693d 6d9d 8d3d abb3 76bc
00000300: adb3 c13c b542 0b3e 5fb7 6e3c b1db a33d
00000310: 87df babd 2baf 22bd abeb 61bd b1ae d1bd
00000320: 20ad 9cbd 22c8 dc3d 8df4 ff3d f82b c43d
00000330: 3210 f03b dd46 f2bd 3e2c e73d 8d7c 95bd
00000340: 0d02 40bd ad0d 433c 62fc b33d 213d 133c
00000350: 82f2 1b3c 86df d2bc 96be a33b 6acc d1bd
00000360: cbf7 0ebc 8120 edbd ee3f e23d e88a a83d
00000370: a966 9abc babe 70bd 28b3 8fbd 27e9 5b3d
00000380: aa14 683d 8d31 683d 3089 a3bd 9892 4ebd
00000390: fd87 223c d883 edbd 7731 fdbd 0b7c b4bc
000003a0: 6fed f9bd 0cb8 94bd 9c8a e63d a026 27bd
000003b0: 47c6 133c fa58 0cbb 6ac2 003d 8922 5e3d
000003c0: 2e64 933d d2f6 88bd 6967 693d a708 a8bc
000003d0: 88f2 e53b f6ed d0bc be51 74bd 04c3 b2bd
000003e0: 9aad 9a3c e9a0 983d 391a 8dbd 6bfb cf3c
000003f0: 5a83 f83d 8d52 a83c 2131 96bd 1b8c 29bd
-0.070558175 0.07470246 -0.04644815 -0.029911734 -0.10537385 -0.111166745 0.04580797 -0.079612255
0.05196408 0.020730434 0.05574699 -0.09570554 -0.025500316 0.03571864 0.069378145 0.0065169903
0.07052348 0.026669374 0.11160386 -0.07226499 0.044651423 -0.02559484 0.08185783 0.1126408
0.08222348 -0.02510706 0.036883626 0.110063426 0.08953311 0.116090246 -0.051658157 -0.032838333
0.071293235 0.064695485 -0.11695464 0.0017963207 0.05852021 0.10899725 0.10890924 0.08471959
0.019615462 -0.07687879 0.008932891 -0.12202762 -0.110538684 -0.08628635 0.06862387 0.08025337
-0.06659164 -0.06639867 0.07637804 0.12934798 0.08584869 0.112686895 -0.105862744 -0.026844205
0.08737486 0.09429967 0.056875978 -0.049094055 0.058539372 -0.10806719 -0.02171407 -0.0688204
-0.10315793 0.043847747 -0.03851316 0.0881875 -0.047992278 0.06304731 -0.012771532 0.09748479
0.11248424 -0.028608646 0.0945258 0.017267436 0.013696064 0.10481629 -0.017293995 -0.11172207
-0.01801603 0.016149495 -0.09479407 -0.06323657 0.1138929 0.02915528 0.06861368 0.1011544
-0.01996633 -0.053761203 -0.028515931 0.09381173 0.09987402 -0.036506478 0.063007206 -0.11353102
-0.022141289 0.10620562 -0.06984786 -0.054540645 -0.06092898 -0.057765383 0.0074835108 0.09224902
0.07679378 0.05945052 0.015528754 0.0020692784 0.02691147 0.088537365 0.12183398 -0.068447985
-0.044905715 0.073240995 -0.08565441 -0.048504833 0.090647504 0.08744875 0.0397598 0.05879967
-0.048112225 -0.02576097 -0.072759524 0.117677994 0.027408611 -0.021633212 0.04415104 -0.11468405
0.0035097206 -0.024733707 0.06809295 -0.02206292 -0.036809023 -0.079007156 -0.029767225 -0.034308795
-0.087635405 -0.026456181 -0.04218656 -0.031375002 0.033944443 -0.017432766 -0.034695834 -0.013026357
0.03465773 -0.10760737 0.07239392 -0.09342255 0.09977131 -0.07354548 0.098295525 0.0062681497
-0.0927627 -0.04763282 -0.07027589 0.019207789 0.072022 -0.044452414 -0.05920627 -0.10352756
-0.09774456 0.06856943 -0.031360604 0.026678732 0.09839129 -0.026306516 0.06823033 0.094264604
0.042975996 -0.11709372 -0.10038086 -0.092673376 -0.02417634 0.053311333 -0.03680681 0.07631163
0.08808476 -0.0062672356 0.068474144 0.011077555 0.056682564 -0.100928515 -0.097082935 0.06841462
0.041604113 0.049634174 0.07252977 -0.09996181 0.02144625 0.056897685 0.06914792 -0.015057485
0.023645246 0.13599665 0.014570086 0.08000887 -0.09124666 -0.039717834 -0.05515639 -0.10238398
-0.076502085 0.1078036 0.12497816 0.09578699 0.0073261494 -0.11829922 0.112877354 -0.07299147
-0.046876956 0.011905116 0.087883726 0.008986742 0.009518268 -0.02574135 0.004997085 -0.10244067
-0.008726071 -0.11578465 0.1104735 0.08229619 -0.01884778 -0.05877564 -0.07016593 0.05368915
0.05666033 0.05668788 -0.07985151 -0.05043277 0.009920117 -0.11597413 -0.1236295 -0.022031805
-0.1220349 -0.07261667 0.112569064 -0.04080832 0.009019441 -0.002141534 0.031435408 0.054232154
0.07196842 -0.06687702 0.056983385 -0.020511938 0.0070174374 -0.025504094 -0.059648268 -0.087286025
0.018881608 0.07452566 -0.06889767 0.02538844 0.12134428 0.020547176 -0.07333589 -0.04139338

lstm1.weight_hh_l1 f4 [256, 64]
00000000: ab8d b13d 1803 3fbd a8d8 d2bd 0d75 b43d
00000010: 41da be3d ba66 853d cf64 913b 1e50 27bd
00000020: d09f b5bd b014 733d be1a 88bd 2e15 afbb
00000030: d527 16bd 80f5 7bbd 9429 863d b9da f5ba
00000040: 56f3 9f3d 14d0 f4bd 38d2 813d 1555 c83d
00000050: 4de7 503d 5674 d3bc e99e a1bd 7fd5 3a3d
00000060: 3cfd dbbd 4690 e3bd da32 8abd f04c 70bd
00000070: 79f2 e1bc 436d bfbd 2e9d af3d 7ba5 eebd
00000080: 9c46 44bd d47c 40bd a278 9d3d 873a 27bd
00000090: 6356 473c a77b f13c 0bb8 5bbc 0322 273d
000000a0: 5c59 9f3d 242f f3bd 6952 d83d cdc0 a7bd
000000b0: dd99 33bd 19f1 15bd a176 cebd abf7 793d
000000c0: 5b6d f03c b932 d83d 1c55 78bd 2a87 e33d
000000d0: 21e8 b1bd b5d0 0d3d e283 8bbd bcbf b53d
000000e0: 6728 72bd cf4e c33d 2852 8f3d be01 3c3d
000000f0: ddbe fdbd 97bb 63bc 7b2b 44bd 9972 cc3d
00000100: 707d 2f3d 0242 44bd 1277 d43d 083e a33d
00000110: 9e93 a9bd 0ce8 a6bc 7158 833d bb40 24bd
00000120: 952c c43d 345a dbbd ebbd 0b3d 5175 bc3c
00000130: 4ef6 353d 7b90 fcbd 5d63 e63d 3b50 debd
00000140: 67aa 553b 36d2 8d3d 74a2 2bbd bfed 8f3d
00000150: c5ac 143d 1720 a23c 3b5d 3e3d 562b 0c3d
00000160: 54ff ba3d 6b1d 56bd 328f 96bd 4119 823c
00000170: c803 bf3d 4ec5 bf3d dcd2 d7bd d237 bcbc
00000180: ca1f bc3d c2b3 16bd 9fc1 c4bd 9479 f83d
00000190: 2c0a 35bd ffd2 d13d a84c fabd 48a0 b4bc
000001a0: f4a2 d5bd 382d b4bb 8731 8abd 11cd 9cbd
000001b0: 4d18 98bb 93e0 e33d d0bb 2f3d 4e79 a8b8
000001c0: 1de8 1bbb 2835 d3bd 937b fa3d 7d5c a13d
000001d0: 15e1 94bd a243 afbd 224f f83d 29f2 fb3d
000001e0: e393 903d 863d 47bc eb86 69bc 6a23 333d
000001f0: 1893 df3d 84d8 b83d fdf6 843d af27 5cbd
00000200: bfbd ee3d c5d0 1abd 9ec6 52bd 2812 a437
00000210: 523e 573d 28e1 43bd f918 f5bd 1304 e03c
00000220: 0ae3 2b3c 3fed 6e3d 9385 923d 27d7 6cbd
00000230: e440 51bb f826 c5bd a812 d4bd 12ce 9b3d
00000240: 7235 b6bd e324 f7bd 6b43 343d 8cec fdbc
00000250: 8e37 5abd 494d 57bd b7db 85bd fbe8 e9bd
00000260: 3853 8d3d 3380 603d 6574 6fbd 933c d23c
00000270: 14ee e53d f0a9 e53c 186e 7b3d 16a0 07bd
00000280: 3e24 443d d4e2 203d eb58 fe3c 8511 a3bd
00000290: 4ae9 c53c 77d3 473d a7fb f43d 63db a2bd
000002a0: 7011 0c3d e800 89bd 5fb7 a03d b29d e53d
000002b0: 8d8b e03d 2a81 ef3d 8d7f dbbd 0f00 cdbd
000002c0: 035d 92bd 73f4 fb3d 3703 26bd 6ef5 87bd
000002d0: d76a 44bd e3c1 943d cc27 483b 4158 d8bd
000002e0: d075 9ebd 9b15 aa3d 3ec8 d0bc 9539 aa3d
000002f0: ce31 d2bd 9e3d 553d 1f8e db3d 1ab7 da3d
00000300: f881 4fbd cba5 2cbd c6d1 183d 5104 a0bd
00000310: d613 943d c105 a63d b59f cabc 6e97 6b3d
00000320: 3b87 9cbd c802 603d 8dac 4b3d 6ea9 38bd
00000330: 5075 433d 5d72 ab3c 4913 39bd 1110 ac3d
00000340: abd6 b33d 8baa e93d d433 d9bd 9269 da3d
00000350: d490 573c 114a 8a3d 2b59 993d 6eef 4b3d
00000360: 0460 9bbd a6b5 b7b9 ea74 793d 4bd6 0fbc
00000370: a074 2fbb 3d31 793d a664 bcbd ddda 22bc
00000380: 6de2 3f3d bca0 c0bd d1ec c63c f450 c43b
00000390: ceae d23d 3157 47bd bd71 1bbd 51ca 37bd
000003a0: 5c72 f13c 2951 f93d 099a a0bd 31ee 603d
000003b0: 9a12 f93b 3d3f 09be fad4 c93d 22aa 01be
000003c0: 5f26 ba3d d5bf 4dbd 12a3 b5bd faa2 6e3a
000003d0: 38d3 ac3c 8140 0cbd 316b 223c 27b4 2b3d
000003e0: 1db9 9a3d aaaa a9ba 7f67 18bd 60df 063c
000003f0: a149 cd3d 9420 c33d d3dc abbc b213 6b3b
0.08669599 -0.04663381 -0.1029523 0.08811388 0.093189724 0.06513734 0.004437066 -0.04084789
-0.088683724 0.0593459 -0.06645726 -0.005343101 -0.03665908 -0.061513424 0.06550899 -0.0018757201
0.078100845 -0.1195375 0.06338924 0.09781853 0.051001836 -0.02581231 -0.07891638 0.045613762
-0.1074166 -0.11111502 -0.067479804 -0.058667123 -0.02758144 -0.09347012 0.085749015 -0.11652657
-0.0479189 -0.046994045 0.076890245 -0.0408273 0.012166592 0.029477907 -0.0134105785 0.04080392
0.07780716 -0.11874226 0.105625935 -0.08191071 -0.043847907 -0.03660688 -0.100812204 0.06102721
0.02934902 0.105565496 -0.06062804 0.11109765 -0.08686853 0.034622867 -0.06812264 0.08874461
-0.059120562 0.09536516 0.06998092 0.0459001 -0.1238992 -0.013899705 -0.04789303 0.09982795
0.042844236 -0.047914512 0.10374273 0.07970816 -0.08280109 -0.02037432 0.06413353 -0.040100794
0.09578816 -0.10710564 0.034116667 0.02300516 0.044424348 -0.12332245 0.11249421 -0.108551465
0.0032602788 0.0692486 -0.041902974 0.07027768 0.03629758 0.019790692 0.04647563 0.034221016
0.09130731 -0.05227415 -0.07351531 0.015881183 0.09326893 0.09363805 -0.10538265 -0.022975836
0.09185751 -0.036792524 -0.09607243 0.12132564 -0.044199154 0.102453224 -0.12221652 -0.022049084
-0.104314715 -0.0054985546 -0.06747728 -0.07656301 -0.0046415688 0.111268185 0.04290372 -8.033459e-05
-0.0023789473 -0.10312873 0.12230601 0.07878969 -0.072694935 -0.08557822 0.121244684 0.12302048
0.07059457 -0.012160664 -0.014253358 0.043734945 0.10916728 0.09025672 0.06492422 -0.053748783
0.11657285 -0.037796754 -0.051458947 1.9558778e-05 0.052549668 -0.047822148 -0.11967654 0.027345693
0.010491142 0.058331724 0.071543835 -0.057822373 -0.0031929547 -0.09626573 -0.10355121 0.07607664
-0.08896913 -0.120675825 0.044009607 -0.030996583 -0.053275637 -0.05256394 -0.06536048 -0.114213906
0.06900638 0.05480976 -0.05846061 0.02566365 0.112270504 0.028035134 0.06138429 -0.033111654
0.047886126 0.03927882 0.031048259 -0.07962326 0.024159092 0.048785653 0.119620614 -0.07952001
0.034196317 -0.06689626 0.07847475 0.112117186 0.10964117 0.11694558 -0.10717688 -0.10009777
-0.07146647 0.12302484 -0.04053041 -0.06638609 -0.047953453 0.072635435 0.00305413 -0.10563708
-0.07737315 0.08304902 -0.025486108 0.08311764 -0.10263406 0.052060716 0.10720467 0.10679455
-0.050661057 -0.0421503 0.03730943 -0.07813323 0.07230346 0.08106566 -0.024734357 0.05751746
-0.07642981 0.054690152 0.049725104 -0.045083456 0.0477193 0.020928556 -0.045184407 0.08401502
0.08781179 0.114094816 -0.106055886 0.10664667 0.013157088 0.06752408 0.074877106 0.049788885
-0.07586673 -0.0003503982 0.060902514 -0.008779119 -0.0026772395 0.060837973 -0.09198885 -0.009939876
0.046846796 -0.09405658 0.024282845 0.0059910957 0.102872476 -0.048667137 -0.037950266 -0.04487068
0.029473476 0.12173683 -0.0784188 0.054914657 0.0076010944 -0.1340303 0.09855075 -0.12662557
0.0908935 -0.050231773 -0.08868994 0.0009103265 0.02109681 -0.034241203 0.009913252 0.041919854
0.07554839 -0.0012944539 -0.037208077 0.008231968 0.10023809 0.09527698 -0.02097932 0.0035869894

lstm1.bias_ih_l1 f4 [256]
00000000: 8136 aa3c c55c 75bc 4ff8 ff3d 8af9 443e
00000010: c96d bc3c 2a77 7a3d 67dc 3a3d e590 123e
00000020: 88fe 263d ac74 053e 2ea1 483d d3ca 163e
00000030: a2dc a0bc 1c33 99bd e1b2 883c 5dc9 c23d
00000040: 1150 c2bd a896 9d3c 0a06 84bd d514 ca3d
00000050: 3561 d2bd dcdb 383d a2da ae3d 8ee2 5fbc
00000060: 64b9 123d 1f3e 0c3d a0ee 043e 4051 45bd
00000070: 27e9 dabc b557 e63c f5e8 c93b 7c6b b53d
00000080: 0546 8c3d 0e2d 003e 62e2 053d d586 ccbd
00000090: 18ba 19bd 02a7 91bd 7790 073e d280 94bd
000000a0: adea cb3d 4fe2 1fbd 88a1 fe3c 7daa 983c
000000b0: 707b 973d 5aee 023e aec1 813d b311 183d
000000c0: 96bb 933c 5ddb b23c 0c33 6a3b ed02 583d
000000d0: 2e13 1f3d c823 3d3c ad37 c1bd 2a61 1f3c
000000e0: b8af c5bd a8c4 853d 50fa 7bbd edfa e83d
000000f0: 4daf 69bd 2391 1ebd 0751 373d 5741 c6bd
00000100: c0df 573d 3c46 b53d 2968 0d3b 9d7e 3a3e
00000110: bd39 bdbd 5473 aebd 488d c63d a272 df3d
00000120: 98ed 373d 50a2 7a3d 73a3 91bd 6179 963c
00000130: 1fc9 9cbd 4361 863d 0e43 403e 69b6 1f3c
00000140: 0fb9 8bbd dc57 013e 0a0f 083e 9e6a d53d
00000150: 2817 2d3d 4e6f 8cbd d363 48bb aa37 073d
00000160: f0f5 5b3d 5527 923d a65a 353d b63f 50bd
00000170: c16e cabd 59c3 9c3d 6148 9d3d c754 3cbd
00000180: 4525 9b3d f7e6 d33d f761 8a3d 4940 f43d
00000190: 1779 7fbd 2fff bbbd 1c6c c93d 9516 43bc
000001a0: fa3d 8f3c c253 abbd ee1e 5b3d 359c 2a3d
000001b0: 5c23 453d 52e9 36bd 446d 083e 8df3 dc3b
000001c0: 30a0 afbb 4122 803d 94fd 23bc 3183 183e
000001d0: 683a d93d 3232 403d 6d5b 71bc c2cd e0bc
000001e0: 4e5c 8bbd 6b1e 623b 5877 25bb e523 0c3e
000001f0: 3e51 32bd e439 c4bd 3626 cd3d cd9b ccbc
00000200: b737 b53d ee5b 9c3c d227 24bc 5f15 11be
00000210: 839d 42bb f9ab fdbd d56f cd3d 84b3 823c
00000220: 31e5 fdbd 08e6 7c3d 36de c53c ac7b d93c
00000230: c745 77bd 326e 083d 4d81 66be 659a 893d
00000240: 1f55 fc3d 0269 88bd 0849 aebd 4040 063d
00000250: 1629 a8bd d6f2 173d ffcf 2bbe 13b6 6a3d
00000260: f3d0 01bc d12c 1cbe 5a2d 8bbd 9489 cb3c
00000270: 1d4d 5bbd 0cc7 f0bd b665 953d d8bd 8ebd
00000280: 1813 073d 5e5f 45bd 2238 873d d9c6 34bd
00000290: 174b cbbc a696 343d f2d9 213b 061a a7bc
000002a0: 3958 eebd 360f 483c fe34 04be f294 8dbd
000002b0: f102 d4bd 5c58 18be 050e 803d 4d43 b03b
000002c0: 9342 53bd 26c1 4d3c 2495 7cbd ff0c b6bd
000002d0: e8e6 ae3d 5c3c 46bc 2df4 1e3d 4f01 6fbd
000002e0: a7bc 8d3d 648e c93d edb9 dd3d d76b c4bc
000002f0: b411 8fbc 15b1 a53c f7a3 b43c 28d5 04be
00000300: 11f1 cebd 52ac e8bd 6c18 c7bd 9f91 2d3e
00000310: 331e b73d 7de0 453d 4b45 773d a24d f1bc
00000320: a2f9 d63d c6b5 fe3d f61b 3e3e 8142 edbc
00000330: ce0f b9bd 14e1 653d 7912 593e 3de6 07bb
00000340: 0296 b33c f5fa 533d a2b7 4bbd 35b0 4a3d
00000350: e1fe 843d ee49 b73d fb63 a4bb b94d 073e
00000360: 89cd 9dbd a411 163e d8eb 60bd 042e ed3d
00000370: 2a86 9e3c 7eb8 1c3d 7b0a fb3c 05f1 03bc
00000380: e9c8 d6bd 1e2b e8bd 0984 e63d 3692 9abd
00000390: 82af 813c 7e8f 9e3c 695b e03d 661b 1e3d
000003a0: 0432 d03d 632e 6a3d e2f6 3c3d 1d7a 963d
000003b0: df64 0e3e b3a4 603c 80fc ad3d 99e1 3dbc
000003c0: 8cde 83bd cea5 003e 44fd 953c 5a8d 053c
000003d0: 225d eebb 3e25 003e b281 7f3d 3804 6fbd
000003e0: d8ed ac3d 1dc9 cb3d b780 753c 3e78 b4bc
000003f0: 4581 73bd 39b9 8abd be78 8e3d 8d7e 2fbd
0.020777943 -0.014975731 0.12498533 0.19235817 0.023001568 0.0611488 0.04562035 0.14313085
0.040770084 0.13032788 0.048981838 0.14725809 -0.019636456 -0.074804515 0.016686859 0.09511063
-0.09487928 0.019236878 -0.06446464 0.09867255 -0.10272447 0.04513155 0.08537795 -0.013664855
0.035821334 0.03423893 0.12981653 -0.04817319 -0.026722504 0.028117994 0.006161804 0.08858392
0.06849293 0.12517187 0.0326866 -0.09986655 -0.03753099 -0.07111932 0.13238703 -0.07251133
0.0995687 -0.039034184 0.031082883 0.018635983 0.07396591 0.12786236 0.063357696 0.037126254
0.018033784 0.021833116 0.0035735993 0.052737165 0.03883665 0.011544175 -0.094344474 0.009727756
-0.09652656 0.0653165 -0.061518013 0.11375985 -0.057051945 -0.038712632 0.044755008 -0.09680431
0.05270362 0.08851287 0.0021576977 0.18212362 -0.09239528 -0.08518091 0.09694916 0.10910536
0.04490432 0.06118995 -0.071112536 0.018368425 -0.07655548 0.0656152 0.1877558 0.00974808
-0.068224065 0.12631172 0.13286987 0.10420726 0.04225841 -0.06857167 -0.0030577078 0.03301207
0.05370134 0.07136408 0.044275902 -0.05084201 -0.09884406 0.07654447 0.07679821 -0.045979287
0.07575468 0.103467874 0.067569666 0.11926324 -0.06237134 -0.09179532 0.09835073 -0.011907239
0.017485607 -0.08365585 0.053496294 0.041652877 0.048129424 -0.044656105 0.13322932 0.0067429007
-0.005359672 0.062565334 -0.010009188 0.14893796 0.10606843 0.04692287 -0.01473127 -0.027441863
-0.06804715 0.0034502994 -0.0025248136 0.13685568 -0.04353451 -0.09581354 0.10017054 -0.024976635
0.088485174 0.019086804 -0.0100192595 -0.14168309 -0.0029695935 -0.12386317 0.10031096 0.01595474
-0.123972304 0.061742812 0.02415381 0.02654823 -0.06036928 0.033308215 -0.22510262 0.067189015
0.12320923 -0.06660654 -0.08510023 0.032776117 -0.082109615 0.03709682 -0.16778563 0.057302546
-0.0079233525 -0.15251471 -0.067957595 0.024845876 -0.053540338 -0.11756715 0.072947904 -0.069698036
0.032977194 -0.048186652 0.06602503 -0.04413495 -0.024816079 0.044088982 0.0024696556 -0.020398151
-0.11637921 0.012210658 -0.1291084 -0.06913175 -0.103521235 -0.14877456 0.06252674 0.0053791166
-0.051577162 0.012558257 -0.06166567 -0.088891976 0.085401356 -0.012099352 0.038807083 -0.058350857
0.06920748 0.09841612 0.10826478 -0.023977203 -0.017464496 0.02022604 0.02205084 -0.12971938
-0.101045735 -0.113609925 -0.09721455 0.16950081 0.08941307 0.04830979 0.060368817 -0.029455964
0.104968324 0.12437014 0.18565354 -0.028962376 -0.09036218 0.056122854 0.21198453 -0.0020736598
0.021922115 0.051753003 -0.049735673 0.04948445 0.06493927 0.08949648 -0.0050168014 0.13213243
-0.07705218 0.14655167 -0.054912418 0.115810424 0.019351084 0.038261883 0.030644646 -0.008053069
-0.10487539 -0.11336349 0.112556525 -0.07547419 0.015830759 0.019355532 0.10954935 0.038600348
0.1016579 0.057173144 0.046133883 0.0734751 0.13905667 0.013711142 0.08495426 -0.011589431
-0.06438932 0.1256325 0.018309243 0.008151377 -0.007274286 0.12514207 0.062379546 -0.058353633
0.084438026 0.09950469 0.014984301 -0.022029992 -0.059449453 -0.0677361 0.069566235 -0.042845298
